…
        "#model.add(layers.Dense(256,activation='relu'))    Include these 2 layers for Not-so-simple CNN-2 which gave improved accuracy\n",
        "#model.add(layers.Dropout(0.5))\n",
        "model.add(layers.Dense(10))\n",
        "\n",
        "model.summary()"
      ],
      "execution_count": null,
      "outputs": [
        {
          "output_type": "stream",
          "text": [
            "Model: \"sequential_2\"\n",
            "_________________________________________________________________\n",
            "Layer (type)                 Output Shape              Param #   \n",
            "=================================================================\n",
            "conv2d_4 (Conv2D)            (None, 32, 32, 32)        896       \n",
            "_________________________________________________________________\n",
            "batch_normalization (BatchNo (None, 32, 32, 32)        128       \n",
            "_________________________________________________________________\n",
            "conv2d_5 (Conv2D)            (None, 32, 32, 64)        18496     \n",
            "_________________________________________________________________\n",
            "batch_normalization_1 (Batch (None, 32, 32, 64)        256       \n",
            "_________________________________________________________________\n",
            "max_pooling2d_2 (MaxPooling2 (None, 8, 8, 64)          0         \n",
            "_________________________________________________________________\n",
            "dropout_2 (Dropout)          (None, 8, 8, 64)          0         \n",
            "_________________________________________________________________\n",
            "flatten_2 (Flatten)          (None, 4096)              0         \n",
            "_________________________________________________________________\n",
            "dense_2 (Dense)              (None, 256)               1048832   \n",
            "_________________________________________________________________\n",
            "dropout_3 (Dropout)          (None, 256)               0         \n",
            "_________________________________________________________________\n",
            "dense_3 (Dense)              (None, 10)                2570      \n",
            "=================================================================\n",
            "Total params: 1,071,178\n",
            "Trainable params: 1,070,986\n",
            "Non-trainable params: 192\n",
            "_________________________________________________________________\n"
          ],
          "name": "stdout"
        }
      ]
    },
    {
      "cell_type": "code",
…
